nohup: ignoring input
SNRNetwork
SNRcm(
  (convs): ModuleList(
    (0): Conv_BN_ACT(
      (conv): Conv_BN(
        (conv): Conv2d(64, 64, kernel_size=(3, 3), stride=(1, 1), padding=(1, 1), bias=False)
        (bn): BatchNorm2d(64, eps=1e-05, momentum=0.1, affine=True, track_running_stats=True)
      )
      (act): ReLU()
    )
    (1): Conv_BN_ACT(
      (conv): Conv_BN(
        (conv): Conv2d(64, 64, kernel_size=(3, 3), stride=(1, 1), padding=(1, 1), bias=False)
        (bn): BatchNorm2d(64, eps=1e-05, momentum=0.1, affine=True, track_running_stats=True)
      )
      (act): ReLU()
    )
    (2): Conv_BN_ACT(
      (conv): Conv_BN(
        (conv): Conv2d(64, 64, kernel_size=(3, 3), stride=(1, 1), padding=(1, 1), bias=False)
        (bn): BatchNorm2d(64, eps=1e-05, momentum=0.1, affine=True, track_running_stats=True)
      )
      (act): ReLU()
    )
    (3): Conv_BN_ACT(
      (conv): Conv_BN(
        (conv): Conv2d(64, 64, kernel_size=(3, 3), stride=(1, 1), padding=(1, 1), bias=False)
        (bn): BatchNorm2d(64, eps=1e-05, momentum=0.1, affine=True, track_running_stats=True)
      )
      (act): ReLU()
    )
    (4): Conv_BN_ACT(
      (conv): Conv_BN(
        (conv): Conv2d(64, 64, kernel_size=(3, 3), stride=(1, 1), padding=(1, 1), bias=False)
        (bn): BatchNorm2d(64, eps=1e-05, momentum=0.1, affine=True, track_running_stats=True)
      )
      (act): ReLU()
    )
    (5): Conv_BN_ACT(
      (conv): Conv_BN(
        (conv): Conv2d(64, 64, kernel_size=(3, 3), stride=(1, 1), padding=(1, 1), bias=False)
        (bn): BatchNorm2d(64, eps=1e-05, momentum=0.1, affine=True, track_running_stats=True)
      )
      (act): ReLU()
    )
    (6): Conv_BN_ACT(
      (conv): Conv_BN(
        (conv): Conv2d(64, 64, kernel_size=(3, 3), stride=(1, 1), padding=(1, 1), bias=False)
        (bn): BatchNorm2d(64, eps=1e-05, momentum=0.1, affine=True, track_running_stats=True)
      )
      (act): ReLU()
    )
    (7): Conv_BN_ACT(
      (conv): Conv_BN(
        (conv): Conv2d(64, 64, kernel_size=(3, 3), stride=(1, 1), padding=(1, 1), bias=False)
        (bn): BatchNorm2d(64, eps=1e-05, momentum=0.1, affine=True, track_running_stats=True)
      )
      (act): ReLU()
    )
    (8): Conv_BN_ACT(
      (conv): Conv_BN(
        (conv): Conv2d(64, 64, kernel_size=(3, 3), stride=(1, 1), padding=(1, 1), bias=False)
        (bn): BatchNorm2d(64, eps=1e-05, momentum=0.1, affine=True, track_running_stats=True)
      )
      (act): ReLU()
    )
    (9): Conv_BN_ACT(
      (conv): Conv_BN(
        (conv): Conv2d(64, 64, kernel_size=(3, 3), stride=(1, 1), padding=(1, 1), bias=False)
        (bn): BatchNorm2d(64, eps=1e-05, momentum=0.1, affine=True, track_running_stats=True)
      )
      (act): ReLU()
    )
    (10): Conv_BN_ACT(
      (conv): Conv_BN(
        (conv): Conv2d(64, 64, kernel_size=(3, 3), stride=(1, 1), padding=(1, 1), bias=False)
        (bn): BatchNorm2d(64, eps=1e-05, momentum=0.1, affine=True, track_running_stats=True)
      )
      (act): ReLU()
    )
    (11): Conv_BN_ACT(
      (conv): Conv_BN(
        (conv): Conv2d(64, 64, kernel_size=(3, 3), stride=(1, 1), padding=(1, 1), bias=False)
        (bn): BatchNorm2d(64, eps=1e-05, momentum=0.1, affine=True, track_running_stats=True)
      )
      (act): ReLU()
    )
    (12): Conv_BN_ACT(
      (conv): Conv_BN(
        (conv): Conv2d(64, 64, kernel_size=(3, 3), stride=(1, 1), padding=(1, 1), bias=False)
        (bn): BatchNorm2d(64, eps=1e-05, momentum=0.1, affine=True, track_running_stats=True)
      )
      (act): ReLU()
    )
    (13): Conv_BN_ACT(
      (conv): Conv_BN(
        (conv): Conv2d(64, 64, kernel_size=(3, 3), stride=(1, 1), padding=(1, 1), bias=False)
        (bn): BatchNorm2d(64, eps=1e-05, momentum=0.1, affine=True, track_running_stats=True)
      )
      (act): ReLU()
    )
    (14): Conv_BN_ACT(
      (conv): Conv_BN(
        (conv): Conv2d(64, 64, kernel_size=(3, 3), stride=(1, 1), padding=(1, 1), bias=False)
        (bn): BatchNorm2d(64, eps=1e-05, momentum=0.1, affine=True, track_running_stats=True)
      )
      (act): ReLU()
    )
    (15): Conv_BN_ACT(
      (conv): Conv_BN(
        (conv): Conv2d(64, 64, kernel_size=(3, 3), stride=(1, 1), padding=(1, 1), bias=False)
        (bn): BatchNorm2d(64, eps=1e-05, momentum=0.1, affine=True, track_running_stats=True)
      )
      (act): ReLU()
    )
  )
  (rescons): ModuleList(
    (0): ResBlock(
      (conv1): Conv_BN_ACT(
        (conv): Conv_BN(
          (conv): Conv2d(64, 64, kernel_size=(3, 3), stride=(1, 1), padding=(1, 1), bias=False)
          (bn): BatchNorm2d(64, eps=1e-05, momentum=0.1, affine=True, track_running_stats=True)
        )
        (act): ReLU()
      )
      (conv2): Conv_BN_ACT(
        (conv): Conv_BN(
          (conv): Conv2d(64, 64, kernel_size=(3, 3), stride=(1, 1), padding=(1, 1), bias=False)
          (bn): BatchNorm2d(64, eps=1e-05, momentum=0.1, affine=True, track_running_stats=True)
        )
        (act): ReLU()
      )
    )
    (1): ResBlock(
      (conv1): Conv_BN_ACT(
        (conv): Conv_BN(
          (conv): Conv2d(64, 64, kernel_size=(3, 3), stride=(1, 1), padding=(1, 1), bias=False)
          (bn): BatchNorm2d(64, eps=1e-05, momentum=0.1, affine=True, track_running_stats=True)
        )
        (act): ReLU()
      )
      (conv2): Conv_BN_ACT(
        (conv): Conv_BN(
          (conv): Conv2d(64, 64, kernel_size=(3, 3), stride=(1, 1), padding=(1, 1), bias=False)
          (bn): BatchNorm2d(64, eps=1e-05, momentum=0.1, affine=True, track_running_stats=True)
        )
        (act): ReLU()
      )
    )
    (2): ResBlock(
      (conv1): Conv_BN_ACT(
        (conv): Conv_BN(
          (conv): Conv2d(64, 64, kernel_size=(3, 3), stride=(1, 1), padding=(1, 1), bias=False)
          (bn): BatchNorm2d(64, eps=1e-05, momentum=0.1, affine=True, track_running_stats=True)
        )
        (act): ReLU()
      )
      (conv2): Conv_BN_ACT(
        (conv): Conv_BN(
          (conv): Conv2d(64, 64, kernel_size=(3, 3), stride=(1, 1), padding=(1, 1), bias=False)
          (bn): BatchNorm2d(64, eps=1e-05, momentum=0.1, affine=True, track_running_stats=True)
        )
        (act): ReLU()
      )
    )
    (3): ResBlock(
      (conv1): Conv_BN_ACT(
        (conv): Conv_BN(
          (conv): Conv2d(64, 64, kernel_size=(3, 3), stride=(1, 1), padding=(1, 1), bias=False)
          (bn): BatchNorm2d(64, eps=1e-05, momentum=0.1, affine=True, track_running_stats=True)
        )
        (act): ReLU()
      )
      (conv2): Conv_BN_ACT(
        (conv): Conv_BN(
          (conv): Conv2d(64, 64, kernel_size=(3, 3), stride=(1, 1), padding=(1, 1), bias=False)
          (bn): BatchNorm2d(64, eps=1e-05, momentum=0.1, affine=True, track_running_stats=True)
        )
        (act): ReLU()
      )
    )
    (4): ResBlock(
      (conv1): Conv_BN_ACT(
        (conv): Conv_BN(
          (conv): Conv2d(64, 64, kernel_size=(3, 3), stride=(1, 1), padding=(1, 1), bias=False)
          (bn): BatchNorm2d(64, eps=1e-05, momentum=0.1, affine=True, track_running_stats=True)
        )
        (act): ReLU()
      )
      (conv2): Conv_BN_ACT(
        (conv): Conv_BN(
          (conv): Conv2d(64, 64, kernel_size=(3, 3), stride=(1, 1), padding=(1, 1), bias=False)
          (bn): BatchNorm2d(64, eps=1e-05, momentum=0.1, affine=True, track_running_stats=True)
        )
        (act): ReLU()
      )
    )
    (5): ResBlock(
      (conv1): Conv_BN_ACT(
        (conv): Conv_BN(
          (conv): Conv2d(64, 64, kernel_size=(3, 3), stride=(1, 1), padding=(1, 1), bias=False)
          (bn): BatchNorm2d(64, eps=1e-05, momentum=0.1, affine=True, track_running_stats=True)
        )
        (act): ReLU()
      )
      (conv2): Conv_BN_ACT(
        (conv): Conv_BN(
          (conv): Conv2d(64, 64, kernel_size=(3, 3), stride=(1, 1), padding=(1, 1), bias=False)
          (bn): BatchNorm2d(64, eps=1e-05, momentum=0.1, affine=True, track_running_stats=True)
        )
        (act): ReLU()
      )
    )
    (6): ResBlock(
      (conv1): Conv_BN_ACT(
        (conv): Conv_BN(
          (conv): Conv2d(64, 64, kernel_size=(3, 3), stride=(1, 1), padding=(1, 1), bias=False)
          (bn): BatchNorm2d(64, eps=1e-05, momentum=0.1, affine=True, track_running_stats=True)
        )
        (act): ReLU()
      )
      (conv2): Conv_BN_ACT(
        (conv): Conv_BN(
          (conv): Conv2d(64, 64, kernel_size=(3, 3), stride=(1, 1), padding=(1, 1), bias=False)
          (bn): BatchNorm2d(64, eps=1e-05, momentum=0.1, affine=True, track_running_stats=True)
        )
        (act): ReLU()
      )
    )
    (7): ResBlock(
      (conv1): Conv_BN_ACT(
        (conv): Conv_BN(
          (conv): Conv2d(64, 64, kernel_size=(3, 3), stride=(1, 1), padding=(1, 1), bias=False)
          (bn): BatchNorm2d(64, eps=1e-05, momentum=0.1, affine=True, track_running_stats=True)
        )
        (act): ReLU()
      )
      (conv2): Conv_BN_ACT(
        (conv): Conv_BN(
          (conv): Conv2d(64, 64, kernel_size=(3, 3), stride=(1, 1), padding=(1, 1), bias=False)
          (bn): BatchNorm2d(64, eps=1e-05, momentum=0.1, affine=True, track_running_stats=True)
        )
        (act): ReLU()
      )
    )
    (8): ResBlock(
      (conv1): Conv_BN_ACT(
        (conv): Conv_BN(
          (conv): Conv2d(64, 64, kernel_size=(3, 3), stride=(1, 1), padding=(1, 1), bias=False)
          (bn): BatchNorm2d(64, eps=1e-05, momentum=0.1, affine=True, track_running_stats=True)
        )
        (act): ReLU()
      )
      (conv2): Conv_BN_ACT(
        (conv): Conv_BN(
          (conv): Conv2d(64, 64, kernel_size=(3, 3), stride=(1, 1), padding=(1, 1), bias=False)
          (bn): BatchNorm2d(64, eps=1e-05, momentum=0.1, affine=True, track_running_stats=True)
        )
        (act): ReLU()
      )
    )
    (9): ResBlock(
      (conv1): Conv_BN_ACT(
        (conv): Conv_BN(
          (conv): Conv2d(64, 64, kernel_size=(3, 3), stride=(1, 1), padding=(1, 1), bias=False)
          (bn): BatchNorm2d(64, eps=1e-05, momentum=0.1, affine=True, track_running_stats=True)
        )
        (act): ReLU()
      )
      (conv2): Conv_BN_ACT(
        (conv): Conv_BN(
          (conv): Conv2d(64, 64, kernel_size=(3, 3), stride=(1, 1), padding=(1, 1), bias=False)
          (bn): BatchNorm2d(64, eps=1e-05, momentum=0.1, affine=True, track_running_stats=True)
        )
        (act): ReLU()
      )
    )
    (10): ResBlock(
      (conv1): Conv_BN_ACT(
        (conv): Conv_BN(
          (conv): Conv2d(64, 64, kernel_size=(3, 3), stride=(1, 1), padding=(1, 1), bias=False)
          (bn): BatchNorm2d(64, eps=1e-05, momentum=0.1, affine=True, track_running_stats=True)
        )
        (act): ReLU()
      )
      (conv2): Conv_BN_ACT(
        (conv): Conv_BN(
          (conv): Conv2d(64, 64, kernel_size=(3, 3), stride=(1, 1), padding=(1, 1), bias=False)
          (bn): BatchNorm2d(64, eps=1e-05, momentum=0.1, affine=True, track_running_stats=True)
        )
        (act): ReLU()
      )
    )
    (11): ResBlock(
      (conv1): Conv_BN_ACT(
        (conv): Conv_BN(
          (conv): Conv2d(64, 64, kernel_size=(3, 3), stride=(1, 1), padding=(1, 1), bias=False)
          (bn): BatchNorm2d(64, eps=1e-05, momentum=0.1, affine=True, track_running_stats=True)
        )
        (act): ReLU()
      )
      (conv2): Conv_BN_ACT(
        (conv): Conv_BN(
          (conv): Conv2d(64, 64, kernel_size=(3, 3), stride=(1, 1), padding=(1, 1), bias=False)
          (bn): BatchNorm2d(64, eps=1e-05, momentum=0.1, affine=True, track_running_stats=True)
        )
        (act): ReLU()
      )
    )
    (12): ResBlock(
      (conv1): Conv_BN_ACT(
        (conv): Conv_BN(
          (conv): Conv2d(64, 64, kernel_size=(3, 3), stride=(1, 1), padding=(1, 1), bias=False)
          (bn): BatchNorm2d(64, eps=1e-05, momentum=0.1, affine=True, track_running_stats=True)
        )
        (act): ReLU()
      )
      (conv2): Conv_BN_ACT(
        (conv): Conv_BN(
          (conv): Conv2d(64, 64, kernel_size=(3, 3), stride=(1, 1), padding=(1, 1), bias=False)
          (bn): BatchNorm2d(64, eps=1e-05, momentum=0.1, affine=True, track_running_stats=True)
        )
        (act): ReLU()
      )
    )
    (13): ResBlock(
      (conv1): Conv_BN_ACT(
        (conv): Conv_BN(
          (conv): Conv2d(64, 64, kernel_size=(3, 3), stride=(1, 1), padding=(1, 1), bias=False)
          (bn): BatchNorm2d(64, eps=1e-05, momentum=0.1, affine=True, track_running_stats=True)
        )
        (act): ReLU()
      )
      (conv2): Conv_BN_ACT(
        (conv): Conv_BN(
          (conv): Conv2d(64, 64, kernel_size=(3, 3), stride=(1, 1), padding=(1, 1), bias=False)
          (bn): BatchNorm2d(64, eps=1e-05, momentum=0.1, affine=True, track_running_stats=True)
        )
        (act): ReLU()
      )
    )
    (14): ResBlock(
      (conv1): Conv_BN_ACT(
        (conv): Conv_BN(
          (conv): Conv2d(64, 64, kernel_size=(3, 3), stride=(1, 1), padding=(1, 1), bias=False)
          (bn): BatchNorm2d(64, eps=1e-05, momentum=0.1, affine=True, track_running_stats=True)
        )
        (act): ReLU()
      )
      (conv2): Conv_BN_ACT(
        (conv): Conv_BN(
          (conv): Conv2d(64, 64, kernel_size=(3, 3), stride=(1, 1), padding=(1, 1), bias=False)
          (bn): BatchNorm2d(64, eps=1e-05, momentum=0.1, affine=True, track_running_stats=True)
        )
        (act): ReLU()
      )
    )
    (15): ResBlock(
      (conv1): Conv_BN_ACT(
        (conv): Conv_BN(
          (conv): Conv2d(64, 64, kernel_size=(3, 3), stride=(1, 1), padding=(1, 1), bias=False)
          (bn): BatchNorm2d(64, eps=1e-05, momentum=0.1, affine=True, track_running_stats=True)
        )
        (act): ReLU()
      )
      (conv2): Conv_BN_ACT(
        (conv): Conv_BN(
          (conv): Conv2d(64, 64, kernel_size=(3, 3), stride=(1, 1), padding=(1, 1), bias=False)
          (bn): BatchNorm2d(64, eps=1e-05, momentum=0.1, affine=True, track_running_stats=True)
        )
        (act): ReLU()
      )
    )
  )
  (proin): Conv_BN_ACT(
    (conv): Conv_BN(
      (conv): Conv2d(1, 64, kernel_size=(3, 3), stride=(1, 1), padding=(1, 1), bias=False)
      (bn): BatchNorm2d(64, eps=1e-05, momentum=0.1, affine=True, track_running_stats=True)
    )
    (act): PReLU(num_parameters=1)
  )
  (prout1): Conv_BN_ACT(
    (conv): Conv_BN(
      (conv): Conv2d(64, 64, kernel_size=(3, 3), stride=(1, 1), padding=(1, 1), bias=False)
      (bn): BatchNorm2d(64, eps=1e-05, momentum=0.1, affine=True, track_running_stats=True)
    )
    (act): ReLU()
  )
  (prout2): Conv_BN_ACT(
    (conv): Conv_BN(
      (conv): Conv2d(64, 1, kernel_size=(3, 3), stride=(1, 1), padding=(1, 1), bias=False)
      (bn): BatchNorm2d(1, eps=1e-05, momentum=0.1, affine=True, track_running_stats=True)
    )
    (act): ReLU()
  )
)
The number of parameters: 1813891
7040
epoch:  0/80 || >>>>>>>>>>>>>>>>>>>> || Loss :     0.0124 || Time : 671.936805 s
epoch:  1/80 || >>>>>>>>>>>>>>>>>>>> || Loss :     0.0035 || Time : 670.345256 s
epoch:  2/80 || >>>>>>>>>>>>>>>>>>>> || Loss :     0.0027 || Time : 669.628129 s
epoch:  3/80 || >>>>>>>>>>>>>>>>>>>> || Loss :     0.0029 || Time : 668.783017 s
…
