2020-12-08 14:55:13.198371: I tensorflow/stream_executor/platform/default/dso_loader.cc:44] Successfully opened dynamic library libnvinfer.so.6
2020-12-08 14:55:13.200141: I tensorflow/stream_executor/platform/default/dso_loader.cc:44] Successfully opened dynamic library libnvinfer_plugin.so.6
SNRNetwork
SNRcm(
  (convs): ModuleList(
    (0): Conv_BN_ACT(
      (conv): Conv_BN(
        (conv): VenConv(
          (conv): Conv2d(64, 64, kernel_size=(3, 3), stride=(1, 1), padding=(1, 1), bias=False)
        )
        (bn): BatchNorm2d(64, eps=1e-05, momentum=0.1, affine=True, track_running_stats=True)
      )
      (act): PReLU(num_parameters=1)
    )
    (1): Conv_BN_ACT(
      (conv): Conv_BN(
        (conv): VenConv(
          (conv): Conv2d(64, 64, kernel_size=(3, 3), stride=(1, 1), padding=(1, 1), bias=False)
        )
        (bn): BatchNorm2d(64, eps=1e-05, momentum=0.1, affine=True, track_running_stats=True)
      )
      (act): PReLU(num_parameters=1)
    )
    (2): Conv_BN_ACT(
      (conv): Conv_BN(
        (conv): VenConv(
          (conv): Conv2d(64, 64, kernel_size=(3, 3), stride=(1, 1), padding=(1, 1), bias=False)
        )
        (bn): BatchNorm2d(64, eps=1e-05, momentum=0.1, affine=True, track_running_stats=True)
      )
      (act): PReLU(num_parameters=1)
    )
    (3): Conv_BN_ACT(
      (conv): Conv_BN(
        (conv): VenConv(
          (conv): Conv2d(64, 64, kernel_size=(3, 3), stride=(1, 1), padding=(1, 1), bias=False)
        )
        (bn): BatchNorm2d(64, eps=1e-05, momentum=0.1, affine=True, track_running_stats=True)
      )
      (act): PReLU(num_parameters=1)
    )
    (4): Conv_BN_ACT(
      (conv): Conv_BN(
        (conv): VenConv(
          (conv): Conv2d(64, 64, kernel_size=(3, 3), stride=(1, 1), padding=(1, 1), bias=False)
        )
        (bn): BatchNorm2d(64, eps=1e-05, momentum=0.1, affine=True, track_running_stats=True)
      )
      (act): PReLU(num_parameters=1)
    )
    (5): Conv_BN_ACT(
      (conv): Conv_BN(
        (conv): VenConv(
          (conv): Conv2d(64, 64, kernel_size=(3, 3), stride=(1, 1), padding=(1, 1), bias=False)
        )
        (bn): BatchNorm2d(64, eps=1e-05, momentum=0.1, affine=True, track_running_stats=True)
      )
      (act): PReLU(num_parameters=1)
    )
    (6): Conv_BN_ACT(
      (conv): Conv_BN(
        (conv): VenConv(
          (conv): Conv2d(64, 64, kernel_size=(3, 3), stride=(1, 1), padding=(1, 1), bias=False)
        )
        (bn): BatchNorm2d(64, eps=1e-05, momentum=0.1, affine=True, track_running_stats=True)
      )
      (act): PReLU(num_parameters=1)
    )
    (7): Conv_BN_ACT(
      (conv): Conv_BN(
        (conv): VenConv(
          (conv): Conv2d(64, 64, kernel_size=(3, 3), stride=(1, 1), padding=(1, 1), bias=False)
        )
        (bn): BatchNorm2d(64, eps=1e-05, momentum=0.1, affine=True, track_running_stats=True)
      )
      (act): PReLU(num_parameters=1)
    )
    (8): Conv_BN_ACT(
      (conv): Conv_BN(
        (conv): VenConv(
          (conv): Conv2d(64, 64, kernel_size=(3, 3), stride=(1, 1), padding=(1, 1), bias=False)
        )
        (bn): BatchNorm2d(64, eps=1e-05, momentum=0.1, affine=True, track_running_stats=True)
      )
      (act): PReLU(num_parameters=1)
    )
    (9): Conv_BN_ACT(
      (conv): Conv_BN(
        (conv): VenConv(
          (conv): Conv2d(64, 64, kernel_size=(3, 3), stride=(1, 1), padding=(1, 1), bias=False)
        )
        (bn): BatchNorm2d(64, eps=1e-05, momentum=0.1, affine=True, track_running_stats=True)
      )
      (act): PReLU(num_parameters=1)
    )
    (10): Conv_BN_ACT(
      (conv): Conv_BN(
        (conv): VenConv(
          (conv): Conv2d(64, 64, kernel_size=(3, 3), stride=(1, 1), padding=(1, 1), bias=False)
        )
        (bn): BatchNorm2d(64, eps=1e-05, momentum=0.1, affine=True, track_running_stats=True)
      )
      (act): PReLU(num_parameters=1)
    )
    (11): Conv_BN_ACT(
      (conv): Conv_BN(
        (conv): VenConv(
          (conv): Conv2d(64, 64, kernel_size=(3, 3), stride=(1, 1), padding=(1, 1), bias=False)
        )
        (bn): BatchNorm2d(64, eps=1e-05, momentum=0.1, affine=True, track_running_stats=True)
      )
      (act): PReLU(num_parameters=1)
    )
    (12): Conv_BN_ACT(
      (conv): Conv_BN(
        (conv): VenConv(
          (conv): Conv2d(64, 64, kernel_size=(3, 3), stride=(1, 1), padding=(1, 1), bias=False)
        )
        (bn): BatchNorm2d(64, eps=1e-05, momentum=0.1, affine=True, track_running_stats=True)
      )
      (act): PReLU(num_parameters=1)
    )
    (13): Conv_BN_ACT(
      (conv): Conv_BN(
        (conv): VenConv(
          (conv): Conv2d(64, 64, kernel_size=(3, 3), stride=(1, 1), padding=(1, 1), bias=False)
        )
        (bn): BatchNorm2d(64, eps=1e-05, momentum=0.1, affine=True, track_running_stats=True)
      )
      (act): PReLU(num_parameters=1)
    )
    (14): Conv_BN_ACT(
      (conv): Conv_BN(
        (conv): VenConv(
          (conv): Conv2d(64, 64, kernel_size=(3, 3), stride=(1, 1), padding=(1, 1), bias=False)
        )
        (bn): BatchNorm2d(64, eps=1e-05, momentum=0.1, affine=True, track_running_stats=True)
      )
      (act): PReLU(num_parameters=1)
    )
    (15): Conv_BN_ACT(
      (conv): Conv_BN(
        (conv): VenConv(
          (conv): Conv2d(64, 64, kernel_size=(3, 3), stride=(1, 1), padding=(1, 1), bias=False)
        )
        (bn): BatchNorm2d(64, eps=1e-05, momentum=0.1, affine=True, track_running_stats=True)
      )
      (act): PReLU(num_parameters=1)
    )
  )
  (rescons): ModuleList(
    (0): ResBlock(
      (conv1): Conv_BN_ACT(
        (conv): Conv_BN(
          (conv): VenConv(
            (conv): Conv2d(64, 64, kernel_size=(3, 3), stride=(1, 1), padding=(1, 1), bias=False)
          )
          (bn): BatchNorm2d(64, eps=1e-05, momentum=0.1, affine=True, track_running_stats=True)
        )
        (act): PReLU(num_parameters=1)
      )
      (conv2): Conv_BN_ACT(
        (conv): Conv_BN(
          (conv): VenConv(
            (conv): Conv2d(64, 64, kernel_size=(3, 3), stride=(1, 1), padding=(1, 1), bias=False)
          )
          (bn): BatchNorm2d(64, eps=1e-05, momentum=0.1, affine=True, track_running_stats=True)
        )
        (act): PReLU(num_parameters=1)
      )
    )
    (1): ResBlock(
      (conv1): Conv_BN_ACT(
        (conv): Conv_BN(
          (conv): VenConv(
            (conv): Conv2d(64, 64, kernel_size=(3, 3), stride=(1, 1), padding=(1, 1), bias=False)
          )
          (bn): BatchNorm2d(64, eps=1e-05, momentum=0.1, affine=True, track_running_stats=True)
        )
        (act): PReLU(num_parameters=1)
      )
      (conv2): Conv_BN_ACT(
        (conv): Conv_BN(
          (conv): VenConv(
            (conv): Conv2d(64, 64, kernel_size=(3, 3), stride=(1, 1), padding=(1, 1), bias=False)
          )
          (bn): BatchNorm2d(64, eps=1e-05, momentum=0.1, affine=True, track_running_stats=True)
        )
        (act): PReLU(num_parameters=1)
      )
    )
    (2): ResBlock(
      (conv1): Conv_BN_ACT(
        (conv): Conv_BN(
          (conv): VenConv(
            (conv): Conv2d(64, 64, kernel_size=(3, 3), stride=(1, 1), padding=(1, 1), bias=False)
          )
          (bn): BatchNorm2d(64, eps=1e-05, momentum=0.1, affine=True, track_running_stats=True)
        )
        (act): PReLU(num_parameters=1)
      )
      (conv2): Conv_BN_ACT(
        (conv): Conv_BN(
          (conv): VenConv(
            (conv): Conv2d(64, 64, kernel_size=(3, 3), stride=(1, 1), padding=(1, 1), bias=False)
          )
          (bn): BatchNorm2d(64, eps=1e-05, momentum=0.1, affine=True, track_running_stats=True)
        )
        (act): PReLU(num_parameters=1)
      )
    )
    (3): ResBlock(
      (conv1): Conv_BN_ACT(
        (conv): Conv_BN(
          (conv): VenConv(
            (conv): Conv2d(64, 64, kernel_size=(3, 3), stride=(1, 1), padding=(1, 1), bias=False)
          )
          (bn): BatchNorm2d(64, eps=1e-05, momentum=0.1, affine=True, track_running_stats=True)
        )
        (act): PReLU(num_parameters=1)
      )
      (conv2): Conv_BN_ACT(
        (conv): Conv_BN(
          (conv): VenConv(
            (conv): Conv2d(64, 64, kernel_size=(3, 3), stride=(1, 1), padding=(1, 1), bias=False)
          )
          (bn): BatchNorm2d(64, eps=1e-05, momentum=0.1, affine=True, track_running_stats=True)
        )
        (act): PReLU(num_parameters=1)
      )
    )
    (4): ResBlock(
      (conv1): Conv_BN_ACT(
        (conv): Conv_BN(
          (conv): VenConv(
            (conv): Conv2d(64, 64, kernel_size=(3, 3), stride=(1, 1), padding=(1, 1), bias=False)
          )
          (bn): BatchNorm2d(64, eps=1e-05, momentum=0.1, affine=True, track_running_stats=True)
        )
        (act): PReLU(num_parameters=1)
      )
      (conv2): Conv_BN_ACT(
        (conv): Conv_BN(
          (conv): VenConv(
            (conv): Conv2d(64, 64, kernel_size=(3, 3), stride=(1, 1), padding=(1, 1), bias=False)
          )
          (bn): BatchNorm2d(64, eps=1e-05, momentum=0.1, affine=True, track_running_stats=True)
        )
        (act): PReLU(num_parameters=1)
      )
    )
    (5): ResBlock(
      (conv1): Conv_BN_ACT(
        (conv): Conv_BN(
          (conv): VenConv(
            (conv): Conv2d(64, 64, kernel_size=(3, 3), stride=(1, 1), padding=(1, 1), bias=False)
          )
          (bn): BatchNorm2d(64, eps=1e-05, momentum=0.1, affine=True, track_running_stats=True)
        )
        (act): PReLU(num_parameters=1)
      )
      (conv2): Conv_BN_ACT(
        (conv): Conv_BN(
          (conv): VenConv(
            (conv): Conv2d(64, 64, kernel_size=(3, 3), stride=(1, 1), padding=(1, 1), bias=False)
          )
          (bn): BatchNorm2d(64, eps=1e-05, momentum=0.1, affine=True, track_running_stats=True)
        )
        (act): PReLU(num_parameters=1)
      )
    )
    (6): ResBlock(
      (conv1): Conv_BN_ACT(
        (conv): Conv_BN(
          (conv): VenConv(
            (conv): Conv2d(64, 64, kernel_size=(3, 3), stride=(1, 1), padding=(1, 1), bias=False)
          )
          (bn): BatchNorm2d(64, eps=1e-05, momentum=0.1, affine=True, track_running_stats=True)
        )
        (act): PReLU(num_parameters=1)
      )
      (conv2): Conv_BN_ACT(
        (conv): Conv_BN(
          (conv): VenConv(
            (conv): Conv2d(64, 64, kernel_size=(3, 3), stride=(1, 1), padding=(1, 1), bias=False)
          )
          (bn): BatchNorm2d(64, eps=1e-05, momentum=0.1, affine=True, track_running_stats=True)
        )
        (act): PReLU(num_parameters=1)
      )
    )
    (7): ResBlock(
      (conv1): Conv_BN_ACT(
        (conv): Conv_BN(
          (conv): VenConv(
            (conv): Conv2d(64, 64, kernel_size=(3, 3), stride=(1, 1), padding=(1, 1), bias=False)
          )
          (bn): BatchNorm2d(64, eps=1e-05, momentum=0.1, affine=True, track_running_stats=True)
        )
        (act): PReLU(num_parameters=1)
      )
      (conv2): Conv_BN_ACT(
        (conv): Conv_BN(
          (conv): VenConv(
            (conv): Conv2d(64, 64, kernel_size=(3, 3), stride=(1, 1), padding=(1, 1), bias=False)
          )
          (bn): BatchNorm2d(64, eps=1e-05, momentum=0.1, affine=True, track_running_stats=True)
        )
        (act): PReLU(num_parameters=1)
      )
    )
    (8): ResBlock(
      (conv1): Conv_BN_ACT(
        (conv): Conv_BN(
          (conv): VenConv(
            (conv): Conv2d(64, 64, kernel_size=(3, 3), stride=(1, 1), padding=(1, 1), bias=False)
          )
          (bn): BatchNorm2d(64, eps=1e-05, momentum=0.1, affine=True, track_running_stats=True)
        )
        (act): PReLU(num_parameters=1)
      )
      (conv2): Conv_BN_ACT(
        (conv): Conv_BN(
          (conv): VenConv(
            (conv): Conv2d(64, 64, kernel_size=(3, 3), stride=(1, 1), padding=(1, 1), bias=False)
          )
          (bn): BatchNorm2d(64, eps=1e-05, momentum=0.1, affine=True, track_running_stats=True)
        )
        (act): PReLU(num_parameters=1)
      )
    )
    (9): ResBlock(
      (conv1): Conv_BN_ACT(
        (conv): Conv_BN(
          (conv): VenConv(
            (conv): Conv2d(64, 64, kernel_size=(3, 3), stride=(1, 1), padding=(1, 1), bias=False)
          )
          (bn): BatchNorm2d(64, eps=1e-05, momentum=0.1, affine=True, track_running_stats=True)
        )
        (act): PReLU(num_parameters=1)
      )
      (conv2): Conv_BN_ACT(
        (conv): Conv_BN(
          (conv): VenConv(
            (conv): Conv2d(64, 64, kernel_size=(3, 3), stride=(1, 1), padding=(1, 1), bias=False)
          )
          (bn): BatchNorm2d(64, eps=1e-05, momentum=0.1, affine=True, track_running_stats=True)
        )
        (act): PReLU(num_parameters=1)
      )
    )
    (10): ResBlock(
      (conv1): Conv_BN_ACT(
        (conv): Conv_BN(
          (conv): VenConv(
            (conv): Conv2d(64, 64, kernel_size=(3, 3), stride=(1, 1), padding=(1, 1), bias=False)
          )
          (bn): BatchNorm2d(64, eps=1e-05, momentum=0.1, affine=True, track_running_stats=True)
        )
        (act): PReLU(num_parameters=1)
      )
      (conv2): Conv_BN_ACT(
        (conv): Conv_BN(
          (conv): VenConv(
            (conv): Conv2d(64, 64, kernel_size=(3, 3), stride=(1, 1), padding=(1, 1), bias=False)
          )
          (bn): BatchNorm2d(64, eps=1e-05, momentum=0.1, affine=True, track_running_stats=True)
        )
        (act): PReLU(num_parameters=1)
      )
    )
    (11): ResBlock(
      (conv1): Conv_BN_ACT(
        (conv): Conv_BN(
          (conv): VenConv(
            (conv): Conv2d(64, 64, kernel_size=(3, 3), stride=(1, 1), padding=(1, 1), bias=False)
          )
          (bn): BatchNorm2d(64, eps=1e-05, momentum=0.1, affine=True, track_running_stats=True)
        )
        (act): PReLU(num_parameters=1)
      )
      (conv2): Conv_BN_ACT(
        (conv): Conv_BN(
          (conv): VenConv(
            (conv): Conv2d(64, 64, kernel_size=(3, 3), stride=(1, 1), padding=(1, 1), bias=False)
          )
          (bn): BatchNorm2d(64, eps=1e-05, momentum=0.1, affine=True, track_running_stats=True)
        )
        (act): PReLU(num_parameters=1)
      )
    )
    (12): ResBlock(
      (conv1): Conv_BN_ACT(
        (conv): Conv_BN(
          (conv): VenConv(
            (conv): Conv2d(64, 64, kernel_size=(3, 3), stride=(1, 1), padding=(1, 1), bias=False)
          )
          (bn): BatchNorm2d(64, eps=1e-05, momentum=0.1, affine=True, track_running_stats=True)
        )
        (act): PReLU(num_parameters=1)
      )
      (conv2): Conv_BN_ACT(
        (conv): Conv_BN(
          (conv): VenConv(
            (conv): Conv2d(64, 64, kernel_size=(3, 3), stride=(1, 1), padding=(1, 1), bias=False)
          )
          (bn): BatchNorm2d(64, eps=1e-05, momentum=0.1, affine=True, track_running_stats=True)
        )
        (act): PReLU(num_parameters=1)
      )
    )
    (13): ResBlock(
      (conv1): Conv_BN_ACT(
        (conv): Conv_BN(
          (conv): VenConv(
            (conv): Conv2d(64, 64, kernel_size=(3, 3), stride=(1, 1), padding=(1, 1), bias=False)
          )
          (bn): BatchNorm2d(64, eps=1e-05, momentum=0.1, affine=True, track_running_stats=True)
        )
        (act): PReLU(num_parameters=1)
      )
      (conv2): Conv_BN_ACT(
        (conv): Conv_BN(
          (conv): VenConv(
            (conv): Conv2d(64, 64, kernel_size=(3, 3), stride=(1, 1), padding=(1, 1), bias=False)
          )
          (bn): BatchNorm2d(64, eps=1e-05, momentum=0.1, affine=True, track_running_stats=True)
        )
        (act): PReLU(num_parameters=1)
      )
    )
    (14): ResBlock(
      (conv1): Conv_BN_ACT(
        (conv): Conv_BN(
          (conv): VenConv(
            (conv): Conv2d(64, 64, kernel_size=(3, 3), stride=(1, 1), padding=(1, 1), bias=False)
          )
          (bn): BatchNorm2d(64, eps=1e-05, momentum=0.1, affine=True, track_running_stats=True)
        )
        (act): PReLU(num_parameters=1)
      )
      (conv2): Conv_BN_ACT(
        (conv): Conv_BN(
          (conv): VenConv(
            (conv): Conv2d(64, 64, kernel_size=(3, 3), stride=(1, 1), padding=(1, 1), bias=False)
          )
          (bn): BatchNorm2d(64, eps=1e-05, momentum=0.1, affine=True, track_running_stats=True)
        )
        (act): PReLU(num_parameters=1)
      )
    )
    (15): ResBlock(
      (conv1): Conv_BN_ACT(
        (conv): Conv_BN(
          (conv): VenConv(
            (conv): Conv2d(64, 64, kernel_size=(3, 3), stride=(1, 1), padding=(1, 1), bias=False)
          )
          (bn): BatchNorm2d(64, eps=1e-05, momentum=0.1, affine=True, track_running_stats=True)
        )
        (act): PReLU(num_parameters=1)
      )
      (conv2): Conv_BN_ACT(
        (conv): Conv_BN(
          (conv): VenConv(
            (conv): Conv2d(64, 64, kernel_size=(3, 3), stride=(1, 1), padding=(1, 1), bias=False)
          )
          (bn): BatchNorm2d(64, eps=1e-05, momentum=0.1, affine=True, track_running_stats=True)
        )
        (act): PReLU(num_parameters=1)
      )
    )
  )
  (proin): Conv_BN_ACT(
    (conv): Conv_BN(
      (conv): VenConv(
        (conv): Conv2d(3, 64, kernel_size=(3, 3), stride=(1, 1), padding=(1, 1), bias=False)
      )
      (bn): BatchNorm2d(64, eps=1e-05, momentum=0.1, affine=True, track_running_stats=True)
    )
    (act): PReLU(num_parameters=1)
  )
  (prout1): Conv_BN_ACT(
    (conv): Conv_BN(
      (conv): VenConv(
        (conv): Conv2d(64, 64, kernel_size=(3, 3), stride=(1, 1), padding=(1, 1), bias=False)
      )
      (bn): BatchNorm2d(64, eps=1e-05, momentum=0.1, affine=True, track_running_stats=True)
    )
    (act): PReLU(num_parameters=1)
  )
  (prout2): Conv_BN_ACT(
    (conv): Conv_BN(
      (conv): VenConv(
        (conv): Conv2d(64, 1, kernel_size=(3, 3), stride=(1, 1), padding=(1, 1), bias=False)
      )
      (bn): BatchNorm2d(1, eps=1e-05, momentum=0.1, affine=True, track_running_stats=True)
    )
    (act): PReLU(num_parameters=1)
  )
)
The number of parameters: 1815093
7040
epoch:  0/80 || >>>>>>>>>>>>>>>>>>>> || Loss :     0.0567 || Time : 517.089930 s
epoch:  1/80 || /usr/local/lib/python3.6/dist-packages/torch/nn/modules/loss.py:445: UserWarning: Using a target size (torch.Size([16, 3, 128, 128])) that is different to the input size (torch.Size([16, 1, 128, 128])). This will likely lead to incorrect results due to broadcasting. Please ensure they have the same size.
…
